Homework5/hw5_skeleton/model.pth (torch, 220223 bytes, 10 tensors)

representation.gamma.0.weight f4 [6, 3, 5, 5]
000000 29 91 b6 bd 98 0e 7e 3d e7 c9 20 3e 5c 98 35 3e
       -0.08914406 0.062025636 0.1570202 0.17733902
000010 c5 18 bb 3d 21 3d 46 3e 2b a6 1a be 74 f2 35 3e
       0.09135584 0.19359256 -0.1510245 0.1776827
000020 36 8f 89 3e 31 0e 7c 3e 52 7c 61 bc 6a a8 a3 3d
       0.26867074 0.24614789 -0.01376255 0.07991107
000030 cd e9 42 3e 70 65 58 bd 03 e8 e1 bd c3 94 29 3d
       0.190345 -0.052831113 -0.11030581 0.041401636
000040 b7 79 2c 3d 7e d3 b8 3d e6 55 03 3e 9e 30 22 be
       0.042108264 0.09024714 0.12825736 -0.15838858
000050 f7 a4 89 bc f6 aa 0b be 03 d3 fc 3d 00 11 29 bd
       -0.016802294 -0.13639435 0.12344935 -0.041275978
000060 18 2a c7 bd 9a 78 65 be a8 5b bf bd 0c d6 da bb
       -0.097248256 -0.22409287 -0.09343654 -0.0066783484
000070 35 04 ef 3d 2e e0 ac bc 63 2e 06 3e e0 45 69 be
       0.11670724 -0.021102991 0.13103633 -0.22780561
000080 d4 6e 5c be 1d e2 bb 3c a7 c4 cc bb 56 0d 79 bd
       -0.21526653 0.022934968 -0.0062490287 -0.060803734
000090 56 d2 f7 3b e9 fe 5d 3e 84 4a ce bd 40 7d 0d be
       0.007562916 0.21679272 -0.100728065 -0.1381731
0000a0 98 37 7c bd bb 19 d9 3d 3c d2 17 3d 33 39 91 be
       -0.061576456 0.10600611 0.03706573 -0.28363952
0000b0 e1 9d 83 3e 07 64 a5 be f6 2a ff bd 62 04 4f be
       0.2570639 -0.32302877 -0.12459366 -0.20216516
0000c0 d7 b8 37 3e b3 44 38 3e c2 87 15 be 1c 02 80 be
       0.17941605 0.17994957 -0.14602569 -0.2500161
0000d0 92 e6 9e 3d 79 cf 55 3d 0a fd c6 3d 09 ef dd bd
       0.077588215 0.052199814 0.09716232 -0.10836608
0000e0 89 cf 86 be 16 6e 59 be 96 80 56 3e af 7b de 3d
       -0.26330212 -0.212334 0.20947489 0.108634345
0000f0 db 61 7d 3d d0 be 16 be 4f 09 f9 3d 52 c9 87 3e
       0.0618609 -0.14721227 0.121599786 0.26520783
000100 68 bd 96 3e 36 50 80 be c9 1c 13 be 38 27 96 3d
       0.2944138 -0.25061196 -0.1436645 0.07331699
000110 b8 2f 0d bc 67 cd b5 3e c1 e9 11 3d 48 3b 47 3e
       -0.008617334 0.35508272 0.035623316 0.19456208
000120 b9 b1 40 be 3a 2a a7 bc f0 55 6d 3d 33 e5 c2 bd
       -0.18817796 -0.020405877 0.057943285 -0.095163725
000130 71 98 dc bd d7 05 81 bd cd 0e 3b bd bf 8f 97 3e
       -0.107712634 -0.06299942 -0.045668412 0.29601857
000140 ea 8a 3f be e0 03 1c 3e d5 bb 0c 3d 41 3e 8b 3e
       -0.18705335 0.15235853 0.034358818 0.27195933
000150 f2 98 c1 bd ef 88 05 3e 62 af e5 bd ae 9b 62 3e
       -0.09453 0.13040517 -0.11215092 0.221297
000160 41 8f 88 3e 5e d4 90 3e 11 67 58 bd 77 b5 17 3d
       0.26671794 0.28287023 -0.052832667 0.037038293
000170 fc 64 b9 3d a7 76 c7 3d 07 3b 00 3d d2 0f 28 3d
       0.09052464 0.09739428 0.031306293 0.041030712
000180 b0 05 d6 bd 74 dd 3c be fc a1 12 3e bb c1 96 bd
       -0.104503036 -0.18443853 0.14319605 -0.0736117
000190 e0 a4 a8 3c 9b ac 83 bd 9d b0 65 bd 4c 0b 92 bb
       0.020586431 -0.06429406 -0.056076635 -0.004456913
0001a0 c2 e6 04 bd 8e 75 8b 3d c3 84 5c be 90 23 92 bd
       -0.03244663 0.06809531 -0.2153502 -0.07135689
0001b0 7d fe 29 be 6a d3 fd bd bf 7a 2e 3d f8 89 bd bd
       -0.16600986 -0.1239384 0.04259753 -0.09254831
0001c0 1c 17 18 bd 87 cc 34 be 4f 65 e5 bd 3d b0 02 3e
       -0.037131414 -0.17656146 -0.11200964 0.12762542
0001d0 54 73 7d 3d 84 b4 68 3d 49 e5 81 3d 68 13 27 be
       0.061877564 0.056812778 0.06342561 -0.16315997
0001e0 5e 22 b3 bd 4a b2 11 3e 02 5b 89 be f2 d7 3e 3d
       -0.087467894 0.14228168 -0.26827246 0.04659266
0001f0 67 14 1f 3e 31 f3 d7 bd 9c a0 54 bc ba a2 cc bd
       0.15535127 -0.10544432 -0.012977745 -0.09991975
000200 6e e6 42 be e5 d4 23 3e 08 15 48 3e c2 86 07 3d
       -0.19033214 0.15999182 0.19539273 0.0330875
000210 f5 fe 48 be 00 ca 0e 3e c3 89 09 be cd a0 c5 3e
       -0.19628508 0.13944244 -0.13431458 0.38599244
000220 f6 67 ba 3e 4f 1e 9f 3e f0 6f 37 3e 1d 78 03 bc
       0.3640744 0.3107781 0.17913795 -0.008024243
000230 90 e4 8c ba 5c dd fe 3c 4a c2 9a bd 13 f9 a6 3d
       -0.0010749269 0.031111412 -0.07556589 0.08152976
000240 76 21 27 be 8d e5 ca be 1a 55 27 be a4 73 86 be
       -0.16321358 -0.39628258 -0.16341057 -0.26260102
000250 a1 c1 00 3d 59 79 68 bd f3 5f 91 3e d5 4e a8 bd
       0.03143466 -0.05675635 0.28393516 -0.08218161
000260 a6 10 13 be a2 8d 29 3e 93 22 79 be bf 16 32 bd
       -0.1436182 0.16557935 -0.24329595 -0.043478724
000270 b0 79 93 3d d6 09 f1 3d a6 90 de bd a8 8d a9 bc
       0.072009444 0.11769454 -0.10867433 -0.02069743
000280 13 ea 66 be 64 99 ce bd 97 15 c1 3d 36 0f 6f bd
       -0.2255023 -0.10087851 0.09427946 -0.058364116
000290 e8 3b 28 3e ce 2d d2 3d 74 06 21 3e 86 f8 d8 bd
       0.16429102 0.10262643 0.15725118 -0.10594277
0002a0 0a c5 0a 3e 40 57 34 3d b1 d9 b2 3e d7 d7 0f be
       0.13551727 0.04402852 0.3493171 -0.1404718
0002b0 d7 2f 7e 3c 98 af 4f be 01 6b 96 bc ed c3 bb bd
       0.015514336 -0.20281827 -0.01836157 -0.09168229
0002c0 8e f2 1e be d4 94 93 bc 20 58 7d 3e 67 c0 95 bd
       -0.15522215 -0.018015303 0.24740648 -0.073120885
0002d0 ec fe 08 be 84 37 48 3e 9f e4 15 3c ff 4a c5 bd
       -0.13378495 0.19552428 0.009148746 -0.09633445
0002e0 d0 00 88 bd a8 4b 85 3d 06 29 75 3d 5b 89 aa be
       -0.0664078 0.06508571 0.059853576 -0.3330792
0002f0 e9 ab a9 be 70 af 49 bd aa 28 8c 3e 5e 60 d5 be
       -0.3313897 -0.049239576 0.27374774 -0.41675085
000300 a7 48 a3 bd 23 42 ff bd 09 2f 23 be 11 60 97 3d
       -0.07972842 -0.124637865 -0.15935911 0.0739137
000310 0a ca 94 be 22 be 14 3c ab 8d a2 bd 68 70 e3 3c
       -0.29060394 0.009078534 -0.07937177 0.02776356
000320 3c fd ae 3d 6b 3d 55 bd 89 91 51 3e cb be 84 bb
       0.085443944 -0.052060526 0.20465674 -0.0040510646
000330 9d 3f e4 3d a2 30 84 be 4f 43 5a 3d 5f 2c 93 3e
       0.11144946 -0.25818354 0.053286847 0.2874479
000340 cc 1a 36 be 5e 73 95 bd 9c 23 8f 3d 9c c3 91 3c
       -0.1778366 -0.07297395 0.06989214 0.01779347
000350 e6 f5 d1 bc 79 ac f7 3d ae 0c 45 3e 8c f7 73 be
       -0.025629949 0.120934434 0.19243118 -0.238249
000360 0c da 09 3d 5c a1 1d be 41 d7 d3 bd 5d e0 05 3e
       0.03365521 -0.15393585 -0.10343791 0.13073869
000370 59 47 1a 3e 8a 4f d9 bd 69 b4 1b be b9 46 63 be
       0.1506628 -0.10610874 -0.1520554 -0.22194947
000380 4e 0b 15 3d 34 3a 5f 3e f4 83 2a bd 48 80 81 3e
       0.036387734 0.21799546 -0.041629747 0.25293183
000390 c5 3d 24 be e1 c3 c9 3d 3d a5 27 bd 06 f7 49 be
       -0.16039188 0.09851814 -0.040929068 -0.19723138
0003a0 a5 e7 20 be 0b ae 7e be 09 d2 f6 3c ee b9 d3 bd
       -0.15713365 -0.2487108 0.03012945 -0.10338198
0003b0 46 57 d5 3d eb e7 26 3e cc 08 a7 bc 5c 1d c6 bc
       0.10417037 0.16299407 -0.020389937 -0.024183922
0003c0 cc 3a 34 be eb 04 96 be 4b ca 0f be bc 36 48 be
       -0.17600554 -0.29300627 -0.14042012 -0.1955213
0003d0 27 18 d0 3c 63 6b 51 be 06 b1 27 be 6f 93 27 be
       0.025402142 -0.20451121 -0.16376123 -0.16364835
0003e0 e6 40 8d bd 20 25 f9 bc b0 bf c5 bd af ba 30 3d
       -0.06897144 -0.03041321 -0.09655702 0.043146785
0003f0 8a bc dc bc a5 a7 9c 3e 3d 46 14 3e 71 70 38 3c
       -0.026945371 0.30596653 0.14479919 0.011257277

representation.gamma.0.bias f4 [6]
000000 46 34 23 3d 05 2f 08 be d5 d1 82 bd 8b b8 28 bd
       0.039844774 -0.13299187 -0.063876785 -0.04119162
000010 f7 42 16 3e 64 fa 56 bb
       0.14673983 -0.0032803053

representation.gamma.3.weight f4 [16, 6, 5, 5]
000000 40 30 2b bd 51 5f a4 3d 24 5a 1f bc 63 35 e7 bc
       -0.04179406 0.08025993 -0.009726081 -0.028223699
000010 17 26 3c 3e 0e 9a a5 bd 68 3c ce bc a1 8f 21 be
       0.18373905 -0.08086024 -0.025175288 -0.15777446
000020 51 93 b1 3d b5 a5 32 3e 53 b8 09 3e 01 db 2b 3e
       0.086706765 0.17446025 0.1344922 0.16782762
000030 5e bd 41 3c c4 0c 29 bd 3b 7d 85 bd f9 55 52 bd
       0.011824934 -0.04127194 -0.065180264 -0.05135152
000040 fe d6 a7 3c e5 2a 51 bd 18 82 f7 3d 11 0f 2d 3d
       0.020488258 -0.051066298 0.1208536 0.042250697
000050 0b 4c 5c be 3e 13 d0 3c 32 81 20 3e e2 de 88 3b
       -0.21513383 0.0253998 0.15674284 0.0041769603
000060 e7 78 31 bd c2 f8 4b be 7b 63 9e 3d 62 86 c5 bd
       -0.043328192 -0.19919112 0.07733818 -0.09644772
000070 07 df 97 bd 08 ca c3 3d 67 40 62 bd 79 1e 00 bd
       -0.07415586 0.09560019 -0.0552372 -0.03127906
000080 9f 25 69 3d e0 93 de bc e0 45 4d 3c e3 44 ea bb
       0.056920644 -0.027170122 0.0125288665 -0.007149325
000090 4d 4c b1 bd d3 e2 18 3e 4a 43 a6 3d 56 1c d1 3b
       -0.08657131 0.14930277 0.08118303 0.0063815517
0000a0 05 35 1e be 79 28 d5 3d fe 36 96 bd 42 64 b5 3d
       -0.15449913 0.1040811 -0.07334708 0.08857013
0000b0 cd 93 0e be cc ca 9a bd e6 1f 01 3d c0 49 93 3e
       -0.13923569 -0.07558212 0.03152456 0.28767204
0000c0 a9 df c5 bd 48 4f 0d be 07 2a 22 bd 8b 9d 62 bd
       -0.096618004 -0.13799775 -0.03959086 -0.055326026
0000d0 b2 97 00 bd a3 7b b5 3d a6 2a 67 3c db 38 d9 3c
       -0.031394668 0.088614725 0.014109289 0.026516369
0000e0 7c 66 63 bd 12 2b c7 bb 90 ad d8 3b 15 81 04 3d
       -0.05551766 -0.0060781324 0.006612487 0.032349665
0000f0 eb 37 c5 bd 5e f4 a3 bd 58 67 39 3e d4 e2 31 3e
       -0.09629806 -0.08005594 0.18105829 0.17371684
000100 fd 33 4e 3e 5e d3 94 3d 30 85 64 3e 2c fe 3a 3e
       0.2013702 0.072668776 0.22316432 0.18261021
000110 83 10 de bc d1 92 8e bd 8f cc b9 bd 3f 52 b1 3c
       -0.027107483 -0.06961597 -0.090722196 0.021645663
000120 f8 33 ad 3d bb 07 bc 3c 50 86 bf 3d f5 e8 c1 3d
       0.08457178 0.022952905 0.0935179 0.09468261
000130 e1 ac 08 3e 03 71 c4 bc 1f ec d3 bd 45 42 4a 3d
       0.13347198 -0.02397967 -0.10347771 0.049379606
000140 fd 90 2d bd 23 0a 28 3c 4e 4a 38 3e 50 df 70 3e
       -0.0423746 0.010256323 0.17997095 0.23522687
000150 57 5e a4 bd d8 8b d2 3d 77 56 33 3d 3b 2a 78 bd
       -0.080258064 0.10280579 0.04378363 -0.06058715
000160 38 bc 0e be bb 4b ce 3d 1c 1d 37 be 31 66 a4 3d
       -0.13938987 0.10073038 -0.17882198 0.08027304
000170 9f 22 37 be ac 54 78 3d c5 fa 70 be 9a 26 0e bd
       -0.178843 0.060627624 -0.23533161 -0.034704782
000180 c9 26 69 3e a7 43 41 bd 7d b4 14 be 82 8e 74 3d
       0.22768702 -0.04718366 -0.14521976 0.05970622
000190 07 7b 8d 3d 11 0f 2b be 44 f6 39 3d a0 b5 3a 3d
       0.06908231 -0.16704966 0.045400873 0.045583367
0001a0 93 09 db 3d 0d 0c 59 3d b0 1b 20 be 85 3e ae bc
       0.106951855 0.05299001 -0.15635562 -0.021270046
0001b0 59 ee 8a bd 12 bf a8 bc ad 96 f7 3d c2 68 bf 3c
       -0.067837425 -0.020598922 0.12089286 0.023365382
0001c0 9e d3 8f be 85 0d b2 bd 04 c5 db bd 6b c4 44 bd
       -0.2809114 -0.08693985 -0.10730937 -0.04803888
0001d0 e2 d4 94 bc 3a 32 c7 3d f0 f2 b2 3d da c3 de 3d
       -0.018167917 0.09726377 0.08737743 0.108771995
0001e0 3e 5b b1 3b 06 1d ad bc 17 e9 81 3d 15 e8 02 bc
       0.0054124882 -0.021132004 0.063432865 -0.007989903
0001f0 4a 0a a9 bd 92 0e e5 bd 7c 33 4c bd 5e e3 95 3d
       -0.082539156 -0.1118442 -0.049853787 0.073187575
000200 f5 99 33 3c 0b 9f 66 bd d7 1f ad 3d 34 24 46 be
       0.010961999 -0.05630402 0.084533386 -0.19349748
000210 dc 37 9a 3e af f6 5b bd 40 76 11 3d 55 ea 89 bc
       0.30120742 -0.053702053 0.035513163 -0.016835371
000220 70 4f 18 bd 76 1c e0 bd aa 4e d2 3d 43 1a 0e bd
       -0.037185133 -0.109429285 0.1026891 -0.034693014
000230 3f 6e 26 3d d8 dd 1f 3e fc 65 57 bd c3 7d f9 3d
       0.040632483 0.1561197 -0.052587494 0.1218219
000240 0f bd 02 3d 67 5e 0a 3d 1d df 70 3e b9 e1 ba bd
       0.03191858 0.033781435 0.23522611 -0.091250844
000250 da 81 5f be de 8d 20 3e fd 7b e8 bd 66 dd 9d bd
       -0.21826878 0.15679118 -0.11351774 -0.07708244
000260 2e a6 17 3e 97 66 ce 3c 25 6c 05 be 83 89 12 3e
       0.14809486 0.025195403 -0.13029535 0.14310269
000270 f6 2e 5f bd 7a 7e 0d bd 1a 4a 0c be d2 8f 86 3d
       -0.054488145 -0.034544446 -0.13700143 0.065704
000280 54 ab 01 bb 1a 99 db 3d 63 75 28 bc ed cc d3 3d
       -0.0019785957 0.10722561 -0.010281893 0.10341821
000290 f8 97 4d 3c 25 27 4e be 4d 63 5f bd 0c 6e b8 3d
       0.012548439 -0.2013212 -0.05453806 0.09005365
0002a0 ca 1f 8b bd ff bf 86 3d f1 b3 48 bc 33 cc a5 bd
       -0.06793173 0.06579589 -0.012249933 -0.080955885
0002b0 28 5f d8 3c dd cc 56 bd ef 9c 3d bd e0 dd 32 bd
       0.026412562 -0.052441467 -0.04629224 -0.043668628
0002c0 73 bc 32 3e 16 28 85 3d 86 79 99 3d 44 2a 39 3d
       0.174547 0.065017864 0.07493882 0.045206323
0002d0 21 ca f2 3d e7 7d b0 bd 00 5e 97 bd 5b bb d6 bd
       0.11854959 -0.08617764 -0.07390976 -0.10484954
0002e0 9d ed 68 3e b0 9f 82 3d 8d 24 89 3d bd 50 a5 3d
       0.22746892 0.06378114 0.06696425 0.0807204
0002f0 ca e7 2d 3d 85 b0 15 3a 91 e1 b5 3d d8 57 48 3e
       0.04245738 0.00057102024 0.08880914 0.1956476
000300 87 a9 a6 3d c9 d6 01 3e 6c 6b ee bd af 14 2a be
       0.081378035 0.1267959 -0.11641583 -0.16609453
000310 52 94 85 3e 92 35 ac 3d 34 19 e1 bb c5 53 f3 3d
       0.26089722 0.08408655 -0.0068694595 0.11881212
000320 90 72 b1 bc 09 68 5b 3c b3 59 09 be 28 6a 7b 3d
       -0.021661073 0.013391503 -0.13413124 0.061380535
000330 7a d1 50 bd 59 4b 0f be 13 e7 39 3d 17 ef 1e 3d
       -0.050981022 -0.13993587 0.045386385 0.038802233
000340 6c 8e 10 3e 6a 43 5a bd 7f 81 2a 3d 91 c7 29 be
       0.1411683 -0.053286947 0.041627403 -0.16580035
000350 8b 68 24 bc 9f 91 72 3d d4 dd 37 3d 31 58 b9 ba
       -0.010034691 0.059220906 0.044889286 -0.0014140663
000360 40 bc bc 3c a6 0b 5f bc 9e de f7 3d 44 07 da bb
       0.023038983 -0.013613617 0.12103008 -0.006653698
000370 e1 fd 31 3e 6b 58 9f 3d 8f 5d 73 bd bc d4 4a bd
       0.17382003 0.07780536 -0.059415396 -0.049519286
000380 2c e3 e5 3d a3 e5 5f 3d 11 82 ba 3d 69 22 a4 3d
       0.1122497 0.054662358 0.091068394 0.08014376
000390 ea 10 03 3d 56 c5 ab bd d9 bf 56 3e 1a a2 01 be
       0.031998552 -0.08387248 0.20971622 -0.12659493
0003a0 fb 9d 4f 3e 45 0c ab 3e c3 b7 b1 3b 62 c1 8d 3d
       0.20275109 0.33407798 0.0054235174 0.069216505
0003b0 27 cd ae 3d 93 d0 35 be df 77 cb 3d 89 65 57 3e
       0.085352235 -0.17755346 0.09934973 0.21034826
0003c0 1b 17 0c 3e fb ea 24 3d e8 62 18 bd 6d 49 43 3c
       0.13680689 0.040263157 -0.0372037 0.011919362
0003d0 4e 7d 3d bd a1 d0 db 3e 3a e0 37 bc 43 69 13 bb
       -0.046262078 0.4293261 -0.011222893 -0.002249316
0003e0 0f 35 26 3e 42 46 8b 3e 86 3b 12 be 23 7c 71 bd
       0.16231178 0.2720204 -0.14280519 -0.058956277
0003f0 02 73 52 be fe c3 0a 3d 94 34 ad 39 16 7e 29 be
       -0.20551684 0.03387832 0.00033036305 -0.16552004

representation.gamma.3.bias f4 [16]
000000 6b 25 05 bc 6c fc 8e bd 62 fe 25 3d a0 62 a0 3c
       -0.008126597 -0.069817394 0.0405258 0.019578278
000010 34 ca 76 bb 4a 23 79 3c 4d 75 de 3b ae cb db bc
       -0.0037657144 0.0152061675 0.0067888857 -0.02683052
000020 55 35 fc bc ca 02 c4 bc 4f 78 a6 bc 93 6d b2 3b
       -0.03078715 -0.023927111 -0.02032104 0.005445191
000030 a8 f3 82 bb c2 c5 c1 bb 3a d6 54 3d e0 ee 1b bc
       -0.0039963312 -0.005913467 0.051962115 -0.009517401

classifier.0.weight f4 [100, 400]
000000 f3 df 3f 3c 00 8b 15 bd b8 6d 89 3c a2 ac 8c bd
       0.0117111085 -0.036509514 0.01677595 -0.068688646
000010 69 4c c9 bb 49 53 a5 bd f2 e2 e4 3d 2e 4d 51 3d
       -0.006143142 -0.08072526 0.11176099 0.051098995
000020 43 7e 04 bd 84 19 b0 bc a4 c6 04 3c 8c 92 bd 3d
       -0.032346975 -0.021496542 0.008104 0.09256467
000030 a9 ce 85 bb 21 92 26 3d ba 5f b7 3d 98 40 9d 3d
       -0.0040834737 0.040666703 0.08953805 0.07678336
000040 41 2d 08 be 54 e9 f3 3b ce 58 55 bd 93 67 a0 3c
       -0.13298513 0.0074435864 -0.052086644 0.019580638
000050 0b 55 47 bd 27 09 11 3d 71 0e fe 3d 1d 9c bf bd
       -0.048665088 0.03540912 0.12405098 -0.09355948
000060 a0 13 25 3d 72 1b 33 39 4d c6 32 bd 28 01 cd 3d
       0.04030192 0.00017080994 -0.043646146 0.10009986
000070 c3 4b 8d bd b6 95 a9 bc 9d 28 a2 bd 3a 9f 1b bd
       -0.06899216 -0.02070127 -0.079179026 -0.037993647
000080 de d5 40 bd 4e aa 94 3d 28 de 45 bd 66 c1 15 3d
       -0.04707896 0.072590455 -0.048307568 0.036561392
000090 33 6b 69 bd 35 9d f2 bd a4 ca ee 3d db b6 f5 bc
       -0.056987 -0.11846391 0.116597444 -0.029994419
0000a0 16 4a c3 3c 2e 3e 44 bd b0 3f 0d be 0e 7a b8 bc
       0.023839038 -0.04791086 -0.13793826 -0.022519138
0000b0 28 5a 9b bc 29 42 2b 3e 62 45 43 bc f2 b0 e3 bd
       -0.018963888 0.16724457 -0.011918398 -0.11117734
0000c0 af b7 74 3d 4a 68 71 bd 89 c2 6e 3d 10 b5 03 3d
       0.059745487 -0.05893735 0.058290992 0.032155097
0000d0 78 f3 57 3d 9c 54 cc 3d 3a 03 cd bc 76 a1 be 3c
       0.052722424 0.099770755 -0.025025953 0.02327035
0000e0 53 27 2f 3c ee 5f 94 3d f2 0b 85 bc d0 c6 a0 bc
       0.010690528 0.0724486 -0.016241048 -0.019626051
0000f0 e1 c3 22 be cf fa df 3c 9c 8e f8 bd f7 37 71 ba
       -0.15895034 0.027341275 -0.121365756 -0.000920176
000100 ec d7 c5 3d cc 68 ee bc d0 07 86 bd 06 85 05 bd
       0.096603245 -0.029102705 -0.06544459 -0.032597564
000110 d2 24 e3 bc f2 4f cf bd 5f 12 68 3d 8f 2c b1 3d
       -0.027727518 -0.1012267 0.056658145 0.08651077
000120 b7 bd e3 bd 2b d5 6e bd 5c 4c a8 3c 15 12 09 3e
       -0.111201696 -0.05830876 0.020544223 0.13385804
000130 3f 3f 19 3d da 4d e8 3b 91 7a ce bb f7 be 9b bd
       0.03741383 0.0070893588 -0.006301232 -0.07604783
000140 b6 43 a8 bd 39 f1 bb 3d 30 39 fd 3c 3f d1 65 3c
       -0.0821604 0.09176869 0.030911058 0.014026939
000150 a8 92 b4 bc 4e 77 da bd 6a bc d7 3d 19 7c bf 3c
       -0.022042587 -0.10667287 0.10533984 0.023374604
000160 d8 2e a9 bd 85 5d ff 3b 38 f8 e5 3c c5 42 41 3d
       -0.08260888 0.007793131 0.028072461 0.047182817
000170 f3 27 19 3d 83 1e 93 bd 58 d7 d3 bb 2e 45 c3 bc
       0.037391614 -0.07183554 -0.00646488 -0.023836698
000180 c4 66 e6 3d ce ca 38 3c 87 13 67 bb d2 45 b7 bc
       0.1125007 0.011278821 -0.0035259442 -0.02237216
000190 06 d2 c6 3d 04 8a 07 3d 29 73 9c bd da 2a 92 bd
       0.097080275 0.033090606 -0.076391526 -0.071370795
0001a0 3d 12 77 bd 5f 3b 82 3d b7 5e cc bd be 28 71 bd
       -0.060320128 0.063589804 -0.09979003 -0.058876745
0001b0 03 27 28 bd 83 dc b0 3b d7 77 f5 bd 10 37 b7 3b
       -0.04105283 0.005397381 -0.11985748 0.0055912808
0001c0 63 03 3f 3c a4 8e 95 3d fa 91 26 bc 54 2c cb 39
       0.011658522 0.07302597 -0.010166639 0.00038752204
0001d0 35 10 b4 3d 57 e9 fe 3c 98 4f 38 3d 0c 61 db bd
       0.08792154 0.031117124 0.04499778 -0.107118696
0001e0 3e b6 bb bd 14 bb 8a bc 96 45 98 3d 0b 90 c9 3c
       -0.09165619 -0.016934909 0.074351475 0.024604818
0001f0 8e 60 8d 3c d2 48 b1 3d 17 24 cc 3b 08 9e 60 bd
       0.017257955 0.086564675 0.006229888 -0.05483821
000200 b8 c8 6b 3c 19 b5 87 ba f9 53 05 bd a2 03 d2 3c
       0.014391117 -0.0010353654 -0.032550786 0.025636498
000210 0e 5f 18 3c 7f 5c db bd fa de 35 3d 45 af f1 3d
       0.009300007 -0.107110016 0.0444021 0.11801008
000220 98 6c aa 3d 03 9b b9 3d 09 b8 f2 3d 92 0f 53 3d
       0.08321494 0.09062769 0.11851508 0.05152852
000230 74 0a 62 3d 26 53 4f bc c5 de 84 bd 49 ee 88 3d
       0.05518575 -0.0126541015 -0.064878024 0.06686074
000240 64 b4 b1 3b 6c 1a 4e bc 46 84 59 3d ad 9c 9a 3d
       0.0054231156 -0.012579542 0.05310466 0.07549415
000250 e5 af fd bc c0 81 31 3d 3e 21 d1 3c 52 26 1b bd
       -0.030967662 0.04333663 0.025528546 -0.037878342
000260 95 42 9e bd 23 27 8c 3d 23 c4 1a bc a5 e4 ab bc
       -0.07727543 0.06843402 -0.009446177 -0.02098305
000270 30 3f 75 3d f6 79 c7 bd 26 78 84 bb b7 fe 04 3d
       0.059874713 -0.09740059 -0.004042643 0.032469478
000280 42 7f bc 3d 8f f6 61 3d 5a 7d e6 3c cf 53 62 3c
       0.0920396 0.055166777 0.028135944 0.013813927
000290 18 6b ea bd 4c a2 8a bd b4 b1 fa bb 17 54 6e 3d
       -0.11446208 -0.06769237 -0.0076505784 0.058185663
0002a0 4b cf 15 3e 9f a4 51 3d 22 49 0a 3e d8 57 fe 3d
       0.14629857 0.051182386 0.1350446 0.124190986
0002b0 69 c4 ab 3d 8c 51 17 3e 8d 49 bd bd 98 e1 94 bb
       0.08387072 0.14777201 -0.09242544 -0.0045434944
0002c0 4b 02 66 3d 44 ae 99 bd b8 1d 97 3c 13 2f dd bb
       0.05615453 -0.07503942 0.018446788 -0.0067499964
0002d0 cf 0d 6f 3d 4c a5 d1 3c c4 e2 8b 3d c6 af 9c bd
       0.05836278 0.025591515 0.068303615 -0.076507136
0002e0 e2 3e 3f bd 0e 0c d7 3a 13 db 31 be 8c e1 20 be
       -0.04669083 0.0016406791 -0.17368726 -0.1571104
0002f0 71 26 14 be af 74 a9 3c 3a 53 95 3c b7 ea 36 bd
       -0.14467789 0.020685522 0.018228162 -0.044657435
000300 95 eb 83 3d e9 62 16 bd a1 24 d7 bd 2c c3 72 3d
       0.06441418 -0.03671542 -0.10505033 0.05926816
000310 53 d9 98 3d 8f 0e fe bd d3 ac b4 3c 9e 54 a5 bc
       0.07463326 -0.124051206 0.022055065 -0.02018195
000320 64 3c 19 3e 71 5b ba bc a3 21 af bd 7a ac 28 3d
       0.14964443 -0.02274868 -0.085513376 0.04118011
000330 e5 c1 d8 bc ee 8f 26 3d d6 f5 03 3c 04 18 8d 3d
       -0.026459644 0.040664606 0.008054217 0.06889346
000340 a2 58 8e bd d9 2a b3 bc f3 0d 66 bd 0d a4 10 3e
       -0.06950499 -0.021871017 -0.056165647 0.1412508
000350 ec 9f 24 3d 34 90 fa bd d5 03 65 bd 19 40 5a 3d
       0.040191576 -0.12234536 -0.055911858 0.053283785
000360 d3 96 57 bd bb 4a 01 3d 4b 53 3a 3d c2 0d 65 bb
       -0.05263407 0.03156541 0.04548959 -0.0034950827
000370 f3 fe 85 3d 9a 76 d3 3d f4 7e 84 3d 5b 38 5f bd
       0.06542768 0.10325356 0.06469527 -0.054497104
000380 6b f9 5e bd 3f fe d0 bb c7 ed c4 bc a1 58 43 bc
       -0.054437082 -0.0063779647 -0.024039162 -0.011922986
000390 a7 3e 2c be 2d 01 59 bd 0d bd 73 bd 3b a6 b9 bd
       -0.16820775 -0.052979637 -0.059506465 -0.09064909
0003a0 3b 65 ae bd 53 0e b6 bd 20 80 71 bd e7 8f 72 3d
       -0.08515402 -0.08889451 -0.05896008 0.059219267
0003b0 a3 b5 fd 3c 77 22 06 bd 37 4b b2 bd 5a 31 c1 3b
       0.0309704 -0.032747712 -0.08705752 0.0058957757
0003c0 ca 73 e6 bd 12 1b f8 bc 48 81 e5 bc e5 88 47 bd
       -0.11252554 -0.030286346 -0.028015748 -0.048714537
0003d0 77 21 bb 3d 19 e3 52 3d 13 dd a2 3c 30 10 2f bd
       0.09137242 0.05148611 0.019880807 -0.042740047
0003e0 4a de e4 3c d6 a5 ea 3d c3 82 d8 bd 78 28 a2 3c
       0.027938027 0.11457412 -0.10571816 0.019794688
0003f0 d5 8a fb bd 12 9e 57 3d d3 af ea 3c 34 7e 9b 3d
       -0.122823395 0.052640982 0.028648293 0.07592431

classifier.0.bias f4 [100]
000000 ba 94 d7 3b eb 49 dd ba a4 3c e6 39 40 41 04 ba
       0.006579009 -0.0016882991 0.000439142 -0.00050451234
000010 0a d7 22 39 3c 2c 17 bb 74 14 b9 ba 40 f7 22 b9
       0.00015529632 -0.0023067137 -0.0014120475 -0.00015541632
000020 4a 7b db bb 6f e4 01 bb 34 89 d1 ba d6 65 91 3c
       -0.006698047 -0.0019819995 -0.0015986324 0.017748754
000030 6f 77 23 3c 93 35 77 bc d5 37 75 b9 39 69 ab 3a
       0.009977206 -0.015088457 -0.0002338582 0.0013077623
000040 1f f1 0b 3c 92 5a ed 3b 50 2a 72 bb af a1 27 bb
       0.0085413745 0.007243463 -0.003695149 -0.0025578549
000050 c1 4a 99 ba 92 9b 62 b9 91 80 a8 bb 64 e3 f7 39
       -0.0011695252 -0.00021610994 -0.0051422794 0.0004728093
000060 c1 c8 c8 39 12 29 00 3c 41 a0 2f 3c 47 61 5a 3a
       0.00038296546 0.007822292 0.01071936 0.00083305355
000070 71 30 cd 3b 2b 00 f5 3b 6a 67 24 3c bc 28 68 b9
       0.006261878 0.0074768267 0.010034421 -0.00022140419
000080 7c 74 10 bc cc e5 f5 ba 78 b1 4f 3a 39 7c 69 bb
       -0.008816835 -0.0018760501 0.0007922868 -0.003562702
000090 7e 9e b5 bb 6c f1 07 3c 61 60 4e 3c 1a ce 95 3b
       -0.0055425754 0.008297306 0.012596221 0.0045716884
0000a0 cb de 5f b9 c7 62 88 3b e7 8b f8 3b 9c fb 30 bb
       -0.00021349934 0.004162166 0.007585037 -0.002700544
0000b0 a5 d0 f8 37 02 b7 99 bb 1a 68 1c b7 2a 04 a1 3b
       2.9661061e-05 -0.0046910057 -9.322563e-06 0.0049138265
0000c0 18 5d 79 3b 81 ec 23 37 a9 01 b9 3a f3 31 ad bc
       0.0038049873 9.7706225e-06 0.0014114875 -0.021141982
0000d0 3b 4e 87 3b ca 41 2d b9 af 21 a3 39 a2 1d e5 b8
       0.004129199 -0.00016523074 0.0003111488 -0.000109250905
0000e0 16 ed 24 3c e1 6b d7 3b 10 dc a9 3b 6e c5 91 3a
       0.010066291 0.0065741395 0.005183704 0.0011121461
0000f0 47 bb c9 b9 c0 88 73 ba 49 a4 45 bb 11 ab bd 3b
       -0.0003847724 -0.00092900917 -0.0030157736 0.005788215
000100 1e 8a 95 3a ed 8c da bb 55 0d ec 3a 27 49 2d 39
       0.001140896 -0.0066696317 0.0018009344 0.00016525817
000110 ed 51 f4 ba ee 69 81 ba da 14 8c 3b e6 5d 2c ba
       -0.0018640138 -0.0009873488 0.0042749466 -0.0006575271
000120 f3 ae ca bc 6d e3 ea b9 84 45 0b 3b f5 11 4d ba
       -0.024741625 -0.00044801403 0.0021251151 -0.0007822805
000130 c1 73 e5 3b 04 ad 29 bb b2 f3 fd b8 22 7d 6a bc
       0.0070023243 -0.002589048 -0.00012109372 -0.014312061
000140 af 18 33 3b 83 a6 8e 3b dd 66 d8 3a e4 c2 e6 bb
       0.0027327945 0.004353346 0.0016510148 -0.0070422757
000150 cb be 5e 39 88 af c9 bb 25 35 c3 3a 6b 57 90 ba
       0.00021242646 -0.006154958 0.0014893158 -0.0011012381
000160 3b af c7 3c c3 be 0f 3c ba 77 6a ba 0b f4 7c 3b
       0.024375549 0.0087735085 -0.0008944232 0.003859761
000170 54 64 ea b9 02 66 fd ba af 00 57 b9 99 5b dc ba
       -0.00044706708 -0.0019332769 -0.00020504252 -0.0016811966
000180 fb 33 3e 3c 48 48 9a ba 95 84 7a 3b 0c 8d 9f bc
       0.011609073 -0.0011770809 0.0038225998 -0.019476436

classifier.2.weight f4 [100, 100]
000000 65 9b cd 3b cd 89 20 3d a8 b7 a3 3e 87 2a 22 be
       0.006274628 0.039193917 0.31976056 -0.15836535
000010 af 3a 50 3d 03 eb b1 bc 9c fb 37 bc de 32 66 bd
       0.050837215 -0.021718508 -0.011229422 -0.056200854
000020 f7 3e 96 3e 0d 03 40 3e 19 18 db bd ae 05 54 be
       0.29344913 0.18751164 -0.10697956 -0.20705292
000030 02 88 f4 3d c6 43 38 be 61 19 78 bd f5 39 28 be
       0.11940004 -0.17994604 -0.06057108 -0.16428359
000040 4b 6a 92 be bb b4 a6 be df ea c7 bd ea 67 4b 3e
       -0.2859672 -0.3255976 -0.09761595 0.19863859
000050 5f 44 8a bd 46 f2 24 be 2b f6 27 3e 93 39 88 3e
       -0.06751322 -0.16108045 0.164025 0.26606426
000060 f9 aa 12 3e 37 0e 1f bd 68 db 59 bd 04 9e af 3d
       0.14323033 -0.038831916 -0.053187758 0.08575061
000070 57 d3 65 be f4 c0 ff 3d 00 46 31 3e 36 33 be 3d
       -0.22443901 0.12487975 0.17311859 0.092871115
000080 40 90 80 3d a4 05 e2 3c 9d e3 4f 3d 42 32 d2 3b
       0.062775135 0.02759058 0.05075418 0.0064146826
000090 a2 73 8b bc f0 ca dd bc 71 6d 51 3d 06 6d f3 3d
       -0.017022911 -0.027074307 0.051129762 0.11886029
0000a0 bb e3 51 3d 38 18 66 3c fc 22 c4 3d 64 62 ce be
       0.05124257 0.01404386 0.09576985 -0.4030944
0000b0 ba 39 bb be d4 8e 99 bd f4 9d 99 be 2f 4b 60 3d
       -0.3656748 -0.074979454 -0.3000332 0.0547592
0000c0 96 2a ef 3c 30 cf 10 3e c6 a2 fa 3a 8b 46 60 be
       0.029195111 0.14141536 0.0019121997 -0.2190191
0000d0 23 44 3e 3e 69 b9 c1 3d 6b 8a 15 3e 95 a8 5e be
       0.1858068 0.09459192 0.14603584 -0.21743996
0000e0 a8 aa db bd f3 57 92 be 9a 94 b7 3d dd 31 0f be
       -0.107259095 -0.28582725 0.089638904 -0.13983865
0000f0 5d eb 50 be ed 74 49 bd 75 6d cb 3b a6 8a 5e 3e
       -0.20402284 -0.049183775 0.0062081167 0.21732578
000100 2c e8 82 be d7 85 da bc f8 41 23 3e 2c 33 35 bd
       -0.25567758 -0.026675148 0.15943134 -0.044238254
000110 da 90 c4 bd 6c 15 5e bb 9f 38 61 bc c3 f0 ff bc
       -0.09597941 -0.003388728 -0.01374641 -0.031242734
000120 c1 d5 14 be 39 55 b9 3e 00 9d 8e bd 36 91 92 bc
       -0.14534666 0.36197832 -0.06963539 -0.017891508
000130 39 c7 0b 3e 46 8d eb 3b db 83 1e be 75 fb 59 be
       0.13650216 0.007188472 -0.15479986 -0.2128733
000140 b0 8f 0d bb 9e 87 88 3c db d4 3b 3e 2c 95 9f be
       -0.0021600537 0.01666623 0.18342917 -0.31168497
000150 36 ee 89 bd d9 27 94 bc c0 3b 24 3e cb 79 0d be
       -0.06734888 -0.018085407 0.16038418 -0.13815992
000160 a9 67 da 3d b6 bb 11 be 49 fe f3 bd 3e 9c 03 3e
       0.10664303 -0.14231762 -0.119137354 0.1285257
000170 35 a6 77 bd 11 07 56 be d3 31 e9 3d b5 44 aa 3d
       -0.06046124 -0.20901133 0.11386456 0.08313886
000180 66 1f 6b 3d 75 a6 2d 3e 03 6c f0 bd 3e 8b 67 bd
       0.05740299 0.1695803 -0.117393516 -0.056529276
000190 d2 86 87 bd 99 31 d5 3d 0d 90 3e 3e 53 90 de 3d
       -0.06617512 0.104098506 0.18609639 0.108673714
0001a0 d7 3b 34 3e be 02 a0 3c 23 26 d6 bd d0 3b a2 bd
       0.17600952 0.019532558 -0.10456493 -0.079215646
0001b0 1a b6 de 3d 99 ba 93 bc dc 63 13 be 1d 33 64 be
       0.10874577 -0.018033313 -0.14393562 -0.22285123
0001c0 5d 2d a0 3e 4e fd 11 bd eb 3f ba be 85 6d 79 3d
       0.3128461 -0.03564196 -0.3637689 0.06089546
0001d0 78 d8 5e 3e 12 0f 5c be 18 96 02 bd f9 46 2b 3d
       0.21762264 -0.21490124 -0.03188142 0.04181573
0001e0 08 48 91 3d 00 af e7 3d 54 b6 21 be d9 1e a5 3d
       0.07093817 0.113126755 -0.15792209 0.08062524
0001f0 c5 c7 a0 3d fa 22 92 bc 7d 72 e9 3d 1a c9 95 3c
       0.07850603 -0.017838944 0.1139879 0.01828437
000200 69 cc c5 3c 93 7e 3d 3e d9 54 99 be 8c bf aa 3d
       0.024145322 0.18505315 -0.29947546 0.08337316
000210 fa 1e e7 bd 34 ef 39 be ec 17 8e 3d ef 63 9a bd
       -0.11285205 -0.18157655 0.069381565 -0.07538592
000220 2d c6 c5 bd 81 3a 47 3e 84 67 b6 3d 21 ec 57 3d
       -0.0965694 0.19455911 0.08906463 0.052715424
000230 16 f4 38 be f0 fe 24 be 26 15 92 3a d1 f0 8a 3c
       -0.18061861 -0.16112876 0.0011145219 0.016960533
000240 6f 76 61 3d 22 08 b9 3d 47 d3 2c bd 6f 3d b6 bd
       0.055044588 0.09034754 -0.042193677 -0.08898436
000250 ba cd 13 be 49 9f 02 be cc 85 a5 3d 5c aa 09 bd
       -0.14433947 -0.12756075 0.0808216 -0.033609733
000260 32 84 5c 3d c2 6b 00 3e 73 3a ec 3c 07 d5 8b bd
       0.05383701 0.12541106 0.028836465 -0.06827741
000270 db b7 8a 3e 4a 5d bc 3d b2 f7 e9 bd f3 79 c3 3d
       0.27093396 0.09197481 -0.11424197 0.09544744
000280 cc 05 c1 3d cd 1e 78 be e6 46 87 3c 49 85 13 be
       0.09424934 -0.242305 0.0165133 -0.14406313
000290 90 79 6a 3d 75 03 b4 be b2 6b 44 be 76 82 5d be
       0.057244837 -0.35158888 -0.19181708 -0.21631798
0002a0 ee 0e b3 bc 77 fb 12 be fd f8 3f 3e 51 3a 56 3e
       -0.021857705 -0.14353739 0.18747325 0.20920683
0002b0 e8 82 a8 3d 4c c0 2d 3e 4b bb 04 bd 55 2a 61 bc
       0.082280934 0.16967887 -0.03240518 -0.013743003
0002c0 e0 a4 02 3d 66 c4 9d 3d c7 10 a2 3d 5c ab 1f bd
       0.03189552 0.07703476 0.07913356 -0.03898178
0002d0 98 0f 4e 3e 94 c3 1a be 6c 27 4a 3e d6 2c 7a be
       0.20123136 -0.1511367 0.19741601 -0.24431166
0002e0 fe 37 84 3d ea 41 91 3d df f3 b5 3c 1d 03 43 3e
       0.06455992 0.0709265 0.022211013 0.19044156
0002f0 41 80 c6 be c9 b4 75 3b 87 58 97 bd de c8 22 bd
       -0.38769725 0.003749179 -0.07389932 -0.039742343
000300 c9 80 2b be 54 dd ae 3d 93 e3 7f bd 7b 0e ab 3d
       -0.16748346 0.08538309 -0.06247289 0.08352371
000310 2b ee b8 3b b3 6b cb bc f3 90 45 3e bf 8a 0d be
       0.005643626 -0.024831628 0.19293575 -0.13822459
000320 e9 1e ec 3d 95 57 f0 3d 29 f9 33 bd 54 bf 09 ba
       0.11529333 0.11735455 -0.04393879 -0.00052546454
000330 25 88 87 3e 8d c3 37 be 66 ec 5b be 35 8d 97 3d
       0.26471058 -0.1794569 -0.21476898 0.0739998
000340 3c c4 dc bd 17 62 a8 3e a1 99 be bc 07 60 c0 3d
       -0.10779616 0.32887337 -0.023266615 0.09393316
000350 1c 15 a8 3d 07 f5 a3 bd 0e a1 99 bd ee c1 ea bc
       0.08207151 -0.0800572 -0.07501422 -0.028656926
000360 48 12 0b be 66 fd 67 bc 42 d2 39 be 76 47 f9 bd
       -0.13581192 -0.014159536 -0.18146613 -0.12171833
000370 a1 73 83 bc a8 13 a0 3e 93 f0 71 3d 42 29 50 3e
       -0.016046347 0.31264997 0.05906732 0.20328239
000380 4f 65 c4 bd fe d1 e5 3e dc fb 75 bd ec 04 79 be
       -0.095896356 0.44886774 -0.060054645 -0.24318284
000390 43 c3 1c be fe 84 49 3e 9f 0a ed 3d 7b 44 04 3e
       -0.15308861 0.19679639 0.115742914 0.12916748
0003a0 c0 d8 29 3e 10 fb 5f be 98 c5 66 bd 0e c1 64 3d
       0.1658659 -0.21873116 -0.056340784 0.055848174
0003b0 51 08 4e 3d e6 e1 de bd a6 db e7 ba de 81 1a be
       0.0503009 -0.108829305 -0.0017689362 -0.15088603
0003c0 ca 99 20 be a7 65 7c be 68 48 6b bd 8c 79 be 3e
       -0.15683666 -0.24648152 -0.0574421 0.37202108
0003d0 31 3a 97 3d 8d 55 90 bc 0d 36 70 bd 6e c2 60 3d
       0.07384146 -0.017618919 -0.058645297 0.054872923
0003e0 79 4a ff 3c 6f 98 1f be 8f 3d c5 3d 42 82 b8 bc
       0.031163441 -0.15585493 0.09630882 -0.02252305
0003f0 f2 04 01 3e dd 93 1b be b4 1b 14 3e e6 0e 75 3d
       0.12599543 -0.15193124 0.14463693 0.05982866

classifier.2.bias f4 [100]
000000 8f ef 9a 3a f8 89 54 ba 04 c8 2a 3a d6 bc db 3b
       0.0011820662 -0.0008107717 0.000651479 0.0067058606
000010 ba 32 ec 3b 0d f8 d0 ba be 92 26 bb 75 bc 97 bb
       0.0072081955 -0.0015943066 -0.0025417055 -0.00463062
000020 3e fe 9c 3b 5f 74 0b 3c 63 12 96 bb 82 3f 37 bb
       0.00479105 0.008511632 -0.0045798286 -0.0027961438
000030 18 ed ae b9 c7 bb c3 3b 90 88 71 3c 9e be 43 3b
       -0.00033364515 0.0059733125 0.014742032 0.0029868255
000040 60 ec d2 3c d1 21 5a bb 2c 8e 1a bc 76 21 b4 ba
       0.025747478 -0.0033284316 -0.0094333105 -0.0013742882
000050 9b 2c c4 b8 9f 46 2c 3a 74 dc 5c 3b 2d 80 98 bb
       -9.354317e-05 0.00065718027 0.0033700736 -0.0046539516
000060 a2 97 d8 3b a3 d7 63 bb 02 53 b0 3b bf 7e 21 bc
       0.006609873 -0.003476598 0.005380989 -0.009856879
000070 9e bc 12 bb 31 b3 aa 3b 91 07 ab ba d7 83 d7 b9
       -0.0022390257 0.0052093496 -0.001304852 -0.00041106224
000080 5e 59 25 bc c1 6c 57 bb 83 88 31 3b 44 07 98 b8
       -0.010092108 -0.003287122 0.0027089424 -7.249278e-05
000090 10 cd 53 38 5f 0d ba 39 d0 31 b1 b7 2c cf 04 b9
       5.04973e-05 0.00035486647 -2.112324e-05 -0.00012665679
0000a0 7a 4e eb ba 70 df 32 bb 03 65 89 bc 9f d7 9e 3b
       -0.0017952465 -0.0027293824 -0.016771799 0.0048474814
0000b0 ed ca e0 39 1e e4 5d ba fe af 17 3c 6f 9c dd b9
       0.000428758 -0.0008464473 0.009258268 -0.00042268957
0000c0 3b 80 f1 bb 89 f3 2e b9 a7 f2 35 b7 21 63 73 3c
       -0.0073700226 -0.00016684657 -1.0844938e-05 0.014855177
0000d0 1b ba d5 b7 23 b4 b3 bb 2c 11 35 3c 76 a4 8e ba
       -2.547824e-05 -0.0054841205 0.011051457 -0.0010882753
0000e0 e3 bc 81 b9 f5 e1 f1 3b 7d 4c 51 39 d2 39 5d 3c
       -0.0002474553 0.0073816725 0.00019960287 0.013502555
0000f0 62 a1 57 bc 64 af 07 bb e2 42 3c 39 ae ff 80 ba
       -0.013161035 -0.0020703906 0.00017953993 -0.0009841823
000100 39 d7 cd 3a d2 79 a8 bb 2f 2f f7 38 6b a7 28 bb
       0.00157044 -0.0051414752 0.000117866664 -0.0025734555
000110 fa ee aa b8 53 55 50 bb 9a 1e 17 3c 25 bc e3 bb
       -8.1507445e-05 -0.0031789138 0.009223605 -0.006949919
000120 c2 21 a5 ba 62 1d 50 ba 54 94 05 bb 74 33 f9 37
       -0.0012598562 -0.00079389487 -0.00203826 2.9707073e-05
000130 84 01 ba 3c 48 53 c5 b9 fc b3 81 3b 46 d3 9b 3a
       0.0227058 -0.00037636817 0.0039582234 0.0011888526
000140 4e c5 82 bb 11 9d 70 bc 04 fb 6e ba 24 af 4d bb
       -0.0039908057 -0.014685885 -0.0009116384 -0.003138491
000150 69 6a 40 3c 41 36 1e 3c e5 50 10 bb 6e db 10 3c
       0.01174412 0.00965649 -0.0022020873 0.008841379
000160 e8 5d 4e bb 59 80 81 bc b1 00 e8 b9 c4 a4 6b bb
       -0.0031489078 -0.015808271 -0.00044251003 -0.0035956362
000170 2b 23 ba 3a 78 22 89 bb 15 49 47 3c 7b 48 0c 3b
       0.0014201155 -0.004185017 0.01216342 0.0021405506
000180 12 49 0c bc a1 d5 6e bc d6 dc e2 bb 2a e3 ca bc
       -0.008562343 -0.0145773 -0.0069232984 -0.024766523

classifier.4.weight f4 [10, 100]
000000 65 c5 7d 3d ea 27 6e 3d 8a c9 1a bd dd 7a c7 bc
       0.06195583 0.058143534 -0.03778986 -0.024350578
000010 3b c2 ad bc ba a1 a2 3d 1b a9 8b 3d e2 20 83 3d
       -0.02121078 0.07941003 0.06819364 0.06402756
000020 d5 8d c3 3d 98 83 5f bd d7 7e 63 3d af 6e 09 bd
       0.09548537 -0.054568857 0.055540886 -0.03355282
000030 3b 71 79 3d 4e 9c fc 3c 4f df 68 3d cd 62 3d bd
       0.060899 0.03083625 0.05685359 -0.046236802
000040 14 36 e1 bc ac ff b3 3d 05 79 ac bd 6d 35 cb bd
       -0.027491607 0.08789 -0.0842152 -0.099222995
000050 bc cb 32 3d 52 32 bd bb 0d e0 53 3d b2 fb 8c 3d
       0.043651327 -0.005773821 0.051727343 0.068839446
000060 3c e0 49 bd ed 1e d0 3b 4b 8e 90 3d 23 33 8d 3d
       -0.049286112 0.006351343 0.0705839 0.06894519
000070 96 1d ca 3d 11 b9 8d bc b6 e6 a5 bd 5f 7c a5 3a
       0.09868924 -0.01730016 -0.08100645 0.0012625566
000080 de 00 b4 ba c6 db 32 bd a7 18 c4 3d 4e bd 95 3d
       -0.0013733169 -0.043666624 0.095750146 0.07311498
000090 e6 b3 b2 bc bf 9e bb bd 2a 1e bd 3d e6 a5 88 3b
       -0.021814298 -0.09161138 0.09234269 0.0041701673
0000a0 cc 32 4e bd 2a dc be 3b 2b 0d 9f 3d 8e ea 67 3d
       -0.050341412 0.0058245854 0.077661835 0.056620173
0000b0 78 48 39 bd 00 f8 a5 bd 19 e9 14 bd 59 8f 9a 3d
       -0.045235127 -0.08103943 -0.03635511 0.07546873
0000c0 ad e9 68 3c 71 fa 32 3a 72 ff c3 3b 8a 61 02 3d
       0.014215869 0.000682748 0.005981379 0.0318313
0000d0 e5 c9 29 bd 8a 71 be bd 7b 9d 11 bd 38 c0 01 bc
       -0.041452307 -0.092989996 -0.035550576 -0.007919364
0000e0 85 8a 93 bc 10 72 df 3b d8 33 86 3d c7 27 f1 bb
       -0.018010387 0.006819017 0.06552857 -0.007359478
0000f0 26 ee 60 bd 40 94 51 3d d0 9d b5 3d 95 bb 36 bd
       -0.054914616 0.051166773 0.08867991 -0.044612486
000100 f5 6b b1 bd 90 9f f0 bb 45 89 9f bb 93 8b eb 3d
       -0.08663169 -0.00734324 -0.0048686587 0.11501231
000110 27 9b ca 3d 66 62 8b 3d 44 72 1b bd 3a 3e aa 3d
       0.09892874 0.068058774 -0.03795077 0.0831265
000120 3d 78 92 3c 29 b1 57 3c d5 79 03 bd 3e 74 0b 3d
       0.0178796 0.013164797 -0.03209861 0.034046404
000130 00 1e 3d bd fd 39 af 3d 80 3d 98 3d 94 3f 2d 3c
       -0.04617119 0.08555982 0.07433605 0.01057424
000140 a9 58 b5 3d c6 82 09 bc 4b 84 73 3c 3e a9 4b bd
       0.08854801 -0.008392995 0.014863084 -0.04972195
000150 09 f8 8f bc 42 be 09 bd 95 a9 97 3d df 2b 56 3c
       -0.017574327 -0.03362871 0.07405392 0.013071983
000160 12 32 d1 3c 24 78 ff 3d be 79 75 3d 4a 09 ae bd
       0.02553657 0.12474087 0.059930556 -0.084978655
000170 1f e4 8c 3d 87 89 57 3d 1e e4 a6 3c 87 ac b5 bd
       0.06879448 0.05262139 0.020372447 -0.088707976
000180 7e f4 5d 3c d3 6d 48 bc e8 76 49 bc eb 5e fc bd
       0.013547061 -0.012233215 -0.012296416 -0.12322792
000190 04 7a 1d bd df b4 ad 3c 63 e5 5e 3d c0 47 03 3d
       -0.03844644 0.02120441 0.05441798 0.032050848
0001a0 71 7c ac bd 69 dc 93 bc e3 f9 a8 3d e1 e6 75 3d
       -0.08422173 -0.018049436 0.08250787 0.060034636
0001b0 7e d6 d4 bd aa 13 a2 3d 52 8b cd 3c 76 49 a4 bd
       -0.10392474 0.07913907 0.025090847 -0.08021824
0001c0 11 29 a7 bc cb e9 82 3c 29 b2 86 bd ad b1 c8 bd
       -0.020405324 0.015980622 -0.0657695 -0.09799514
0001d0 63 d3 22 be cc 60 12 3d e6 59 b2 3b d4 48 8a bd
       -0.1590095 0.035736844 0.0054428456 -0.06752172
0001e0 41 86 04 3d 38 d4 ad ba f0 c8 96 3c 83 ef 57 3d
       0.032354597 -0.0013262099 0.018406361 0.05271865
0001f0 6d 7f a6 bd 91 40 c3 3a c0 ca b9 3d b8 12 b2 3b
       -0.08129773 0.0014896562 0.090718746 0.0054343604
000200 5a 9f 8d 3d 61 fd e5 bd 0c 96 59 bc 94 f4 92 ba
       0.069151595 -0.11229969 -0.013280403 -0.0011211806
000210 25 fa a2 3c c3 25 ca 3c 4b b0 e2 bd b1 84 b2 bc
       0.019894669 0.02467621 -0.110687815 -0.021791788
000220 42 da 18 bd 73 4d b4 bd 4f d8 e1 bd 00 19 8c 3d
       -0.037317522 -0.08803835 -0.11027586 0.06840706
000230 3d 2f 92 3d ae f4 93 3d 9f e6 04 3e e2 2b a0 bc
       0.07137916 0.07224403 0.129786 -0.019552175
000240 26 10 d3 ba 04 4b 87 3d 93 9e 22 3d 74 7e 1b 3c
       -0.0016102835 0.06606105 0.03970201 0.009490598
000250 8e d8 0c 3d 55 e2 df bb 6d e0 91 3d c0 1a 2e bd
       0.03438621 -0.006832401 0.07122884 -0.04250598
000260 81 e5 c5 3c d1 33 9e 3c a3 05 12 be 7e 11 07 bd
       0.024157288 0.019311817 -0.14259963 -0.032975666
000270 bf 27 b9 bc 34 68 db bd 23 84 4b 3d 5b 57 99 bd
       -0.02260196 -0.107132345 0.049686562 -0.07487365
000280 15 56 bb 3c 50 51 51 3c 97 8f 11 bd ca 9f 96 3c
       0.022868196 0.012775734 -0.03553733 0.01838674
000290 5b 1a bd bb 4c ae ac bc c3 92 77 bd 25 64 0c 3d
       -0.005770964 -0.021079205 -0.060442697 0.034275193
0002a0 d6 e5 fd 3b 90 11 c8 3c a0 22 bd bd 50 c7 d9 bc
       0.007748346 0.024422437 -0.0923512 -0.026584297
0002b0 e7 4c 51 3d d9 a5 a8 3d bc 7a 2c bc cd 84 9b 3c
       0.05109873 0.08234758 -0.010527309 0.018984223
0002c0 61 90 08 be f4 9b 16 bc 27 99 85 bd ce 53 60 bd
       -0.13336326 -0.009192456 -0.06523352 -0.054767422
0002d0 2a b3 a9 3d 00 26 4a 3d 07 14 50 3d c9 bb 11 bd
       0.08286126 0.049352646 0.05080035 -0.035579477
0002e0 9d f7 6a bd ad c3 d5 bd 81 9f 57 bd 34 2c dc bd
       -0.05736505 -0.10437713 -0.05264235 -0.107506186
0002f0 76 c8 06 3e 0b f0 da 3d 53 aa 52 bd 33 d7 8b 3d
       0.13162407 0.10690316 -0.051431965 0.06828155
000300 bd a0 b2 3d 76 97 ad 3c a9 54 66 bd ce c9 c2 3c
       0.08722065 0.021190386 -0.056233082 0.023777869
000310 32 78 ef bc b0 ae 26 ba 48 84 a9 3c 8c dd d6 3d
       -0.029232118 -0.0006358428 0.02069296 0.104914755
000320 82 0e 94 3d 8a 47 18 bd 00 0f e9 bc b7 99 b8 3d
       0.0722933 -0.0371776 -0.028449535 0.09013694
000330 77 27 ab 3c f8 0e 68 3d 87 fd 97 bd d7 72 9a bd
       0.020892842 0.0566549 -0.074214034 -0.07541435
000340 69 c9 93 3d 83 0d 43 3d ec 29 59 3d 5f 9d 96 bd
       0.0721615 0.047620308 0.053018495 -0.07354235
000350 50 4d df bc 86 dd 21 bd ae 5e ed 3d 2b 74 98 3d
       -0.027258545 -0.0395179 0.11590324 0.07444032
000360 14 dd 2d 3d 3b 60 98 bd 9e 52 f5 bc 41 b4 23 bd
       0.042447165 -0.074402295 -0.029946622 -0.039966825
000370 57 31 8e bd 7d 2b 7f bd 41 3b ae 3d bd df 7d bc
       -0.069430046 -0.062297333 0.085073955 -0.015495238
000380 2e 7e 68 3c 39 b4 a3 bc cb cb 67 3d fb 45 94 bd
       0.01419024 -0.019983398 0.056590836 -0.0723991
000390 98 b6 17 bd 6c db 0b 3c a0 97 4c 3d 6c 80 11 3b
       -0.03703937 0.008536201 0.04994929 0.002220179
0003a0 00 14 30 bd 67 43 dd 3d 4e fa fa 3c 0e 46 59 bb
       -0.042987823 0.108038716 0.030636933 -0.0033153328
0003b0 05 06 8c bd 34 14 89 bd 04 c4 4e bd a5 0b af ba
       -0.06837086 -0.066933066 -0.050479904 -0.0013354911
0003c0 c1 c2 aa 3d b9 08 26 3d e1 91 ba bd a3 1b d1 3d
       0.083379276 0.040535662 -0.091098554 0.102103494
0003d0 37 af 0c bd cb ff b6 bd 8d 0c 04 3e e8 7b 11 bc
       -0.034346785 -0.089355074 0.12895413 -0.008879639
0003e0 b1 1b 54 bc 04 b3 60 bd d3 fc ab 3d a1 b6 9f 3c
       -0.012946055 -0.054858223 0.08397832 0.019496264
0003f0 dc f4 3f bd 6f 8b b6 3c d9 71 aa bd b9 ab c5 3d
       -0.046864375 0.022283284 -0.08322496 0.09651894

classifier.4.bias f4 [10]
000000 84 ec a3 3b 5b 94 7a bd 64 41 41 3b 9f c6 f6 bc
       0.00500256 -0.06117664 0.0029488439 -0.030124007
000010 05 8d 3d 3e fb 1a 4c bd b2 3d c0 3d d8 6d a9 3a
       0.18510826 -0.049830418 0.093867674 0.0012926413
000020 9a a0 ae 3d 10 3b 28 be
       0.08526726 -0.1642878
